cifar_net.pth (torch, 262996 bytes, 10 tensors)

conv1.weight f4 [12, 3, 5, 5]
00000000: a29d b4bd 3092 25be 54ae 2f3b 9f0b 1b3d
00000010: a92b 143b 4efb 43bd 0393 353d 71cc 6ebc
00000020: 351d 12be 512c 5dbd 6d8e 73bd bfa8 4e3d
00000030: 1e68 7f3d 600e 48bc 668c d4bd 9738 c53c
00000040: a809 4bbd 3cfa 8c3d 4bb1 debd f0d6 a43c
00000050: a608 23bd bc1a e03d 4077 913d 440a 2ebd
00000060: 968d af3d d75f e2bd 191b ffbd 9047 f5bd
00000070: a0db 07bc c206 583d 7668 15be a8b3 14be
00000080: 592a dd3c c314 473d ff47 253d 7625 a0bd
00000090: 6cc1 cd3d 1346 0a3c a66b a53d e980 053d
000000a0: cec5 49bd ac50 373d 101a 7cbd 4a5a 9b3d
000000b0: f41a 6f3c df20 ce3d 2fe1 35bd c289 89bd
000000c0: 933d c33d 44ac 18bd 80e0 d43d 4065 163e
000000d0: ece4 8b3d 8be0 d33d d589 ce3c b03a af3d
000000e0: 9532 2b3e 48f2 123e 4974 023e 159d 843d
000000f0: a56f 443e 15ba bb3d 6468 3b3e a4d4 e33d
00000100: df0c 05bd 314a 0a3e 3d4b ddbb d72b 143e
00000110: c2b7 e13c 83aa b13c baac 753c 24c1 3d3e
00000120: ef7f 0f3d cd33 bb3c c98c 583d bb92 65bd
00000130: 7d79 ab3e 0dfa cc3e 6d7e 823d dcc7 acbd
00000140: 4b23 d13c b1c8 bd3e a5d0 513e 2d28 4cbe
00000150: 5b1b 62be e7f6 7d3e e095 703e 344e 29be
00000160: 81dc cabe 880d 093e fcd9 66bc 2a6e 22be
00000170: f3df a3be e6f8 11be 9d3b 863e acb7 38be
00000180: 36e8 a9be e6a1 82be 70f3 ec3d e3c3 823e
00000190: eb52 72bd 8c39 f53c 66b5 443d 80be 0cbe
000001a0: 4cae bcbe 5509 f53c d363 623e a972 50bd
000001b0: 3128 cebe 9f95 24be 4e28 053e d387 013e
000001c0: f3cf 8ebe cd52 d7be d199 4c3e 3f16 813c
000001d0: 9ade 18bc aee6 c8be 1945 e7bd ba0a cf3e
000001e0: 4c20 6f3d 30bf f8bd 754f acbd 5a4d 383e
000001f0: 612a c33e 1208 febd e200 c33c 5dbe ec3d
00000200: 6959 12bd 8c3d 07be b7ea 36bc d200 133e
00000210: 5013 373d 56e1 27be 302b fdbd d9f6 943d
00000220: 5b6d 613e cb80 8ebe b2e3 9bbe f592 993e
00000230: 90d8 7239 7a18 6abd 73e6 bcbe 5e90 c5bd
00000240: 70ef ac3e 0327 e2bd 0f7d 59be 9109 c7bd
00000250: 5eed ab3e c0e0 b33e 83a2 64be 3f9e 76be
00000260: a346 e1bd df26 59be 7880 44be d7ec eabd
00000270: e2b0 73be a64f 37be 9d6d 19be ff1b 3fbe
00000280: 236d 3ebe 6f9d 24be 29d0 36be 3360 37be
00000290: 341d 90bd b6ff 12be 2bfc 22be 1ec3 ffbd
000002a0: 071c f5bd af29 f3bd a363 40be 103d 4abe
000002b0: b3f4 66bd 9d81 21be f273 55bd 1dff bf3c
000002c0: e857 e3bc 6d48 b53c a89d a93d d649 823c
000002d0: 9bae 513d 1412 213e af7b 1f3e 40d3 073d
000002e0: 7cfe 063d 66db 343e ea8f f93b 2066 613e
000002f0: 7336 d43c bf0d bb3d 97e1 a8bc f2e3 18bd
00000300: 0143 b63d 34f0 32bd a867 303d c8e8 8e3b
00000310: 2d70 363d afbf e7bd eb3c 1abd c96a e53c
00000320: 5a68 683d db29 383d d315 9d3d 6aea fbbc
00000330: 6249 0b3d eeb8 973d 8a3a 4e3e 51d3 0c3e
00000340: e0a7 493e 3742 473e 5c5d 423e 37ae 2d3e
00000350: 19e7 203e 8035 603e 810d 563e d80b 52bb
00000360: e6c3 1c3d 4a5d cc3d 29ab d63d 6a37 2d3e
00000370: ddc2 2e3e 476a 153e e1af 2a3d 2913 133e
00000380: 1eca 013d 5b98 8fbb e6f4 133e 8658 003d
00000390: 7852 733d 1d5a 0b3e 8394 8c3d e2c4 813e
000003a0: 5cf0 be3e 1141 393e 196f 423e 5a61 633d
000003b0: b03e 853e c582 b33e 3272 a93e 993d 943e
000003c0: f5d8 79bd f0c5 eb3d 5f91 fe3d 1655 3d3e
000003d0: 5feb fc3d 34bb 19be 7e64 d9bd a84f 153b
000003e0: 347d 8d3a ad92 6ebd 8058 94bd 1495 cfbd
000003f0: 7865 b93b 6ac8 23be 9c85 05be 6815 83bd
-0.088191286 -0.16169047 0.0026806789 0.03785288 0.0022609031 -0.047847085 0.044329654 -0.01457511
-0.14268954 -0.05399734 -0.059462 0.050453898 0.062355153 -0.0122104585 -0.103783414 0.024074836
-0.049569756 0.06883666 -0.1087366 0.020122021 -0.03980317 0.10942599 0.07102823 -0.04249026
0.08571927 -0.11053436 -0.1245634 -0.1197654 -0.008292109 0.05274082 -0.1459063 -0.14521658
0.026997732 0.048603784 0.040351864 -0.07819645 0.10046658 0.008439559 0.08077173 0.03259364
-0.049260907 0.04475467 -0.061548293 0.07585581 0.0145938285 0.100648634 -0.044404205 -0.06715728
0.09533229 -0.03727366 0.103943825 0.14687061 0.06830773 0.103455625 0.025212208 0.085561156
0.16718514 0.14350235 0.12739672 0.064752735 0.19183214 0.09166352 0.1830154 0.11124542
-0.032482978 0.13504864 -0.006753354 0.14469849 0.027553443 0.021687752 0.0149947945 0.18530709
0.035034116 0.022851849 0.05286864 -0.056048136 0.33491126 0.40034524 0.0637177 -0.08436558
0.025529524 0.37067178 0.20489748 -0.19937201 -0.22080748 0.24801217 0.23494673 -0.16533738
-0.39621356 0.13384068 -0.014090057 -0.15862337 -0.32006797 -0.14255103 0.26217356 -0.18038815
-0.33184975 -0.25514144 0.115698695 0.25540075 -0.059161108 0.029934667 0.048024558 -0.13744545
-0.36851728 0.029911676 0.22108392 -0.0508906 -0.4026504 -0.16072701 0.13003656 0.12649469
-0.27893028 -0.4205536 0.19980551 0.015757678 -0.009330416 -0.39238495 -0.11292476 0.4043787
0.05838041 -0.12145841 -0.08413593 0.17998257 0.3811827 -0.12403883 0.023804132 0.115597464
-0.0357298 -0.13207072 -0.011164359 0.14355782 0.044696152 -0.16394553 -0.12361753 0.07273645
0.22014372 -0.27832636 -0.30447155 0.29994932 0.00023159594 -0.05715225 -0.3689457 -0.096466765
0.33776426 -0.11042597 -0.21239112 -0.097186215 0.33579534 0.35132408 -0.22327618 -0.24083804
-0.10999801 -0.21206234 -0.19189632 -0.11470955 -0.23797944 -0.17901477 -0.1498322 -0.18663023
-0.1859632 -0.16075681 -0.17852844 -0.17907791 -0.0703682 -0.14355358 -0.15916507 -0.124883875
-0.119682364 -0.11873185 -0.18788008 -0.19749856 -0.056385707 -0.157721 -0.052112527 0.023437077
-0.027751878 0.022129262 0.08282024 0.015904348 0.051191907 0.15729553 0.15574525 0.033160448
0.03295754 0.17661819 0.007616033 0.22011614 0.02590487 0.09133481 -0.020615382 -0.03732676
0.08899499 -0.043686107 0.043067604 0.004361246 0.044540573 -0.113158576 -0.037655752 0.02800502
0.056740142 0.04496179 0.07670178 -0.030751426 0.03400553 0.074083194 0.20139518 0.13752486
0.19692945 0.19458853 0.18980926 0.16960989 0.15713157 0.21895409 0.20903589 -0.0032050516
0.03827276 0.09978731 0.10481865 0.1691567 0.17066522 0.14591323 0.041671637 0.14362778
0.031686895 -0.004382176 0.1444889 0.031334423 0.05940482 0.13608594 0.06864264 0.25345522
0.37292755 0.18091227 0.18987693 0.055512764 0.2602439 0.35060707 0.33094937 0.28953245
-0.060997922 0.11512363 0.12430071 0.18489489 0.12349581 -0.15012819 -0.106148705 0.0022783075
0.001079476 -0.05824535 -0.072434425 -0.10135856 0.005657848 -0.1599442 -0.13039249 -0.06400567

conv1.bias f4 [12]
00000000: 9d55 33be 67e1 c6be 2ded 763e 699c 37bf
00000010: 362a debe 416f b0be 208a a6be ff24 4ebe
00000020: 8026 a2be 8407 8f3d 02ae 58be 0f65 9d3d
-0.17513128 -0.38843843 0.24113913 -0.7172304 -0.4339158 -0.3445988 -0.32527256 -0.201313
-0.31669998 0.06983855 -0.21160129 0.07685291

conv2.weight f4 [16, 12, 5, 5]
00000000: 1e24 233e 9992 b43d 9e76 ec3d 592c 843d
00000010: 12c3 5d3d 45a5 a43d 041c 1b3d cd3a 90bb
00000020: cdea 1a3d b869 aa3b 5a32 2ebc a95f 00bc
00000030: 5ddc ed3c 5e98 14bc 8e29 86bd 0f26 3f39
00000040: 97db 643c 7b1b 3bbc 1387 853b 5bab dabc
00000050: 936b d73d afb8 ee3c 2775 1abd 06f4 9b3c
00000060: aa71 0abd 4b9a 69bd c599 38be 6aa9 f0bd
00000070: ba44 88bd 33e8 bf3c 0039 c1bc e300 2bbe
00000080: 34c2 2dbe 1536 8e3c ca76 413c 853f 793c
00000090: 02ea d5bd 4b5f b8bd f6a5 86bd 86b6 acbc
000000a0: ea0e f53c 423b fcbd 5783 49be 8c10 0cbe
000000b0: 16fe 71bd a14f 82bc e0fa 88bd fa1f 1ebe
000000c0: a626 f2bd b833 22be 659b fc3d 9856 013d
000000d0: c5ed 6abd d2bc 86bd ad9e dcbd 6706 d83d
000000e0: 64e9 34bc 7fbb d4bc 9d49 23be f72c a9bd
000000f0: de35 f9bb 1fea 1abc a700 a0bd c1f2 35be
00000100: 27a3 61bd eafa 893d 4807 8bbd 0479 20be
00000110: 77a1 67bd a85d 823c 78c3 0d3e 021e 093a
00000120: 8a66 fbbc 5f19 96bd a3e1 d53c 2594 383d
00000130: acd7 113c c086 a5bd dc31 71b9 8890 003d
00000140: e145 933c cc8c 803c 696a c0bd 5fe1 9bbc
00000150: fbaa 793d 8784 533d 3658 78bb 5ea4 28bd
00000160: 3d4a 3dbd f936 893d 0bac 9abc 3d48 7a3b
00000170: 54f0 16bd ec4e a4bd 278e 233c c669 9a3d
00000180: cdf2 f23c fedf cebb b694 153d 9a56 113d
00000190: d2ac 78bd 1696 32bd 690a 5bbd 8e83 613c
000001a0: 363d d3bd 6dd9 92bd 887b bcbd abca 44bc
000001b0: f88e 09bd f4c2 1c3d 60c2 2dbb 1e28 92bd
000001c0: bc36 633c b2cb 9abd 14ca b9bc 7c38 f2bd
000001d0: acec 60be 9241 2cbe 0b19 f6bd af23 f33c
000001e0: e411 58bd 1d51 9ebd 4051 1abe d88c 17be
000001f0: c115 d2bd 07b2 3abe 61e2 01bc 47b4 d13d
00000200: 34b1 9dbd 900e 87bd a7ef dabd bea3 1abd
00000210: d505 88bb 743e af3c e63a 083d 7ee4 f1bd
00000220: db82 24be e696 82bd 4ca5 883d 50f6 c83d
00000230: a8a1 a3bd a31c fdbd 501e dbbd d76f 0bbd
00000240: d3aa 3e3d 2a34 f4bd 289c f7bd d4f0 0fbe
00000250: 57e9 93bd d252 e93c ab23 b53c 6866 003d
00000260: 323b d839 22c1 1cbb 6050 323c 6594 aabd
00000270: 2530 b2bc 8526 e5bc 8d21 8cbd bc23 3cbd
00000280: f457 62bd 255c c7bb 21a6 6dbb 0f0c 13bd
00000290: 7513 b2bc ca63 083d a352 f4bc 16c6 823c
000002a0: b4e8 413c a3e6 83bd 49cb 243d f962 7dbd
000002b0: c2a6 493d ecbf 22bc 507c 75bd 0ba3 15be
000002c0: 0076 b63c a95b 10bd 2e4c b03d 50d0 953d
000002d0: ba27 12be ea24 e0bd f061 c4bb e128 993d
000002e0: 6bb3 0a3d 3027 1fbe 23e5 ccbd ae23 98bc
000002f0: 38d1 f63c 8eb4 083d 7914 10be 2dc3 bfbd
00000300: 1f16 02bd 4998 b33b dee7 2cbc ad2e 2fbe
00000310: 11e1 e4bd 011a b1bd 8176 8d3b d722 5e3c
00000320: b718 7b3e bf52 8a3e e45d 093d 7ee2 86bd
00000330: 8108 98bd 1f02 fe3d 949f 073e 8d7b 1dbd
00000340: ccda 1abe cd15 05be e8c3 9d3d b4a9 773e
00000350: 4086 013d 4ffb c8bd 5523 e6bd 9548 963d
00000360: ed86 213e ede9 953c 2300 eebc 8d7a cbbd
00000370: f54f b73d 0a62 a33d 52fa bb3c 1a80 67bd
00000380: 9621 d3bd 939e fa3d 1ac5 853d fd02 133d
00000390: 1ded c53b 3eb7 57bb 277c a3bb b894 ed3c
000003a0: 98b2 a6bb cd91 abbc f844 c6bd a008 593c
000003b0: 1659 8e3c f89c 9dbd b2ff f3bc 1c3a 22bd
000003c0: bfe1 4d3c 448d 7f3c 325e 35bc 6e88 2cbd
000003d0: b270 95bc e52d f23d 1c17 253d 0f8b 58bd
000003e0: 7536 3e3c d981 223d 7512 f83c 8176 173e
000003f0: c827 133e d108 863d d013 b63d e1f3 72bd
0.15931746 0.08817024 0.11546062 0.06453771 0.05414111 0.08039335 0.037868515 -0.004401541
0.03782158 0.005200591 -0.010632122 -0.007835307 0.029035741 -0.00906953 -0.06550895 0.00018229357
0.01396837 -0.011420126 0.00407494 -0.026693037 0.10518565 0.029140798 -0.03770938 0.019037258
-0.033799805 -0.05703191 -0.18027408 -0.11751063 -0.066537336 0.02342615 -0.02358675 -0.16699557
-0.16968614 0.017359773 0.011808107 0.015212898 -0.10445024 -0.09002551 -0.06574623 -0.021083128
0.029914338 -0.1231599 -0.19679008 -0.13678187 -0.059080206 -0.01590711 -0.066884756 -0.15441886
-0.11823778 -0.15840042 0.12334327 0.031576723 -0.05735566 -0.06578983 -0.107724525 0.10548096
-0.011041973 -0.025968311 -0.1594605 -0.082605295 -0.0076052984 -0.009455233 -0.078126244 -0.17768385
-0.055087235 0.06737311 -0.06788498 -0.15671164 -0.05655047 0.0159138 0.13844097 0.0005230607
-0.030688543 -0.07329058 0.026108569 0.045063157 0.008901518 -0.08082342 -0.00023002125 0.031387836
0.017977657 0.015692137 -0.09395296 -0.019028364 0.060954075 0.05164006 -0.0037894375 -0.041172378
-0.046213377 0.06699938 -0.018880865 0.003819003 -0.03685029 -0.08022866 0.009982622 0.07539706
0.029656792 -0.006313323 0.036518775 0.03548298 -0.06071169 -0.043600164 -0.053476725 0.013764275
-0.103144094 -0.07170377 -0.09203249 -0.01201121 -0.03358361 0.03827186 -0.0026513562 -0.07136558
0.01386803 -0.07558383 -0.022679366 -0.1182718 -0.21965283 -0.16821888 -0.12016495 0.029680101
-0.052751437 -0.07730315 -0.15070057 -0.14799821 -0.102580555 -0.18231975 -0.007927508 0.10239463
-0.076998144 -0.065945745 -0.10690241 -0.037753813 -0.004151086 0.021392085 0.033259295 -0.118111596
-0.16065542 -0.06376438 0.06672153 0.098126054 -0.07989818 -0.12358978 -0.10699141 -0.034042206
0.04654963 -0.11924012 -0.12090331 -0.14056712 -0.072222404 0.028481875 0.022111734 0.031347662
0.00041242834 -0.0023918827 0.010883421 -0.08329085 -0.021751473 -0.02797247 -0.06842337 -0.045932516
-0.05525966 -0.0060839825 -0.003626235 -0.03590017 -0.021737793 0.03329829 -0.02982456 0.015963595
0.011835266 -0.06440475 0.04023293 -0.061861966 0.0492313 -0.009933453 -0.059933007 -0.14612977
0.022273064 -0.035243664 0.0860828 0.07315123 -0.14272967 -0.10944541 -0.0059931204 0.074785
0.033862513 -0.15542293 -0.10004642 -0.0185717 0.03012906 0.033375315 -0.1407031 -0.09363399
-0.031759378 0.0054808003 -0.010553328 -0.17107649 -0.111757405 -0.08647538 0.0043171053 0.013558111
0.24521147 0.27016255 0.033536807 -0.06586169 -0.07423497 0.12402748 0.13244468 -0.038447905
-0.15122527 -0.12996598 0.07703382 0.2418583 0.03162217 -0.09813558 -0.11237208 0.07338063
0.15774126 0.018300021 -0.0290528 -0.09935484 0.089507975 0.07977684 0.02294651 -0.05651865
-0.103091404 0.12237277 0.06531735 0.03589152 0.006040229 -0.0032915617 -0.0049891653 0.029001579
-0.005087208 -0.020943547 -0.096811235 0.013246685 0.017376464 -0.07695955 -0.029785011 -0.0396062
0.012566029 0.015597645 -0.011069821 -0.042122297 -0.018242214 0.1182516 0.040305242 -0.05286699
0.011609663 0.039674614 0.030282238 0.147913 0.14370644 0.0654465 0.08890498 -0.059314612

conv2.bias f4 [16]
00000000: bea4 3f3e 8068 f33c ca1c f3be 9066 5fbd
00000010: 0deb 2c3d 66cc 96be debe abbe 338c 293f
00000020: 2cad 783e 2238 afbe 28e6 133f 3e7f c53e
00000030: 4829 4abe 692a 013d 6f03 143f 64df 11bf
0.18715188 0.029712915 -0.47482902 -0.05454117 0.04221635 -0.2945282 -0.33544058 0.6622955
0.2428481 -0.34222513 0.57773066 0.3857364 -0.1974231 0.031534586 0.5781774 -0.5698149

fc1.weight f4 [120, 400]
00000000: 6155 14bc b2e6 52bd 8dae ae3b 8870 93bd
00000010: 2579 13bd c45d c4bc 451d 7fbc befe a5bb
00000020: e0d3 c3bd b06d 59bc 0991 1abd d810 acbd
00000030: fd52 22bd b1a3 403b f2cc 52bd 02ea bebc
00000040: 9d4c bc3b 7066 e2bc 719e 6abd 26c4 d5bc
00000050: af3b afbd 1758 d3bd 9180 2ebd fd0a 34bc
00000060: 44fa 23bd f2f0 27bc bbbb 1bbc 81c8 f6bc
00000070: 7ff8 55bd ca3a 90bb 5268 cc3d e21f b33d
00000080: 29a9 383d b003 a63d 0677 9f3d 1659 d1bc
00000090: 8322 103d 0130 263d 0b97 6d3d 3421 383d
000000a0: 7ab9 32bd 4595 cc3c e486 a7bb a35a 813c
000000b0: eb0d 42bd 615d 24bc 5b07 7fbd d53b bebd
000000c0: 72c9 1bbd 6a4c 67bc 57d3 e4bc d8cd 3a3d
000000d0: e208 93bd 79ff 61bc 8a7b 0d3c b2da 4d39
000000e0: 69c4 dcbb 3b77 88bd 8181 08bd a851 10bd
000000f0: 38b0 373d 448a 4fbc cd93 c2bc 1c34 05bd
00000100: a6f0 9b3c 7612 c13d 40a2 f93c 0c9c 453d
00000110: d9ce 813d 00d1 9c3d 69bc 803d 82c0 0a3c
00000120: 6b19 3d3d 783d 203d 0e60 843d bfc9 fcbc
00000130: fa52 81bd 3456 cebd 4a79 89bd e8f0 c4bd
00000140: 9720 06bd 103b dcbd 0d29 a1bd 0780 3fbd
00000150: 0400 50bd 0bc7 c3ba b0e1 abbd a65d fabc
00000160: 0734 30bd fded bc3b 41db 29bd efd2 4bbd
00000170: 8d68 343d c86f 2f3d c4c8 f63c de39 12bc
00000180: 29b2 e3bc fe60 bf3d 859b d33c 8f1d 4abd
00000190: 99e5 00bd 8c6a babb 909d 453d 9287 bfbb
000001a0: 2ec2 ff3b c0fa 7c3c 7557 d2bc e933 263d
000001b0: 12e5 e13c f309 40bd 784d 22bd c8a5 90bc
000001c0: 32c5 583d 5bc1 1b3d a414 3b3d 376e 55bc
000001d0: 52b0 603d 1691 ecbc a5ee ef3c 2ed2 b1bc
000001e0: 964f 69bb 1c75 f73c 4e13 bf3b 7845 403d
000001f0: 00ab b53b f9c7 04bb 2c36 163c a126 da3c
00000200: 5adb 84bd 2a18 abbb 48cd 71bd 6a1e 42bc
00000210: 81d7 c63d 63f4 443d b69e 7ebc c880 323d
00000220: c3fa a03d 7926 333d 24bb 07bc b360 59bb
00000230: 3f51 8f3c 4453 28bd 1bc6 cdbc 0e36 1dbd
00000240: d700 a13c bad7 8abd 5471 c9bd b11b d0bd
00000250: d7ae 6abc d7ed b0bd 361b de3c 8d6e 373c
00000260: 075b 07bd d580 26bc c4f1 723c de17 3fbb
00000270: 0e73 08bd 45ea a2bc 66c2 3f3d 2d91 703c
00000280: bafa cdbb 424c c73c 35b1 9ebc a547 0fbd
00000290: 8003 19bd 607f 18bd 2b61 8dbb f021 0dbd
000002a0: ff9c 9abc 0f3e e5bc 4f56 a03d 33df 293d
000002b0: c667 8d3d 9ee6 0e3d 7390 96bc b98d b53c
000002c0: 9141 7d3c e400 cf3b f5c7 aabb e103 f5bc
000002d0: d440 3b3d 3075 273d 1c5c 143c 7849 263d
000002e0: 741a a83c f161 4f3d 2741 f63c d5a0 533d
000002f0: 3610 9a3b 0048 c5bc e712 9e3c 8ec9 90bb
00000300: 5385 48bd bbc8 ca3c 5599 6ebb 30d5 6ebd
00000310: 636b e53a 6e65 74bd f6bf 63bd 152c 733b
00000320: 3fbf 063d 924d 3a3d ad29 c8bc cca6 ad3c
00000330: 0416 893c 4775 27bb 786b 973c 177b 82bd
00000340: db41 c13c 9be1 4b3d fc29 9fbc f17d 1639
00000350: fb76 90bc 1090 e7bc 5711 9bbc b5f4 053b
00000360: 7206 3c3d c7b8 17bd 5b32 03bd bffb 693d
00000370: ba66 03bd 9c77 6dbd c732 d43c dd25 61bd
00000380: e04d f53c d6a6 013d 4665 133d cb83 c7bc
00000390: af62 05bd d277 f0bb c02b ebbc 8d21 9cbc
000003a0: e9ad 963b 81e9 e9bc cb1d 4c3c 99ef 593c
000003b0: 3197 9bbd b8e6 3f3c 779c 61bb c868 e63b
000003c0: ee5d 8f3c 9c69 123c bb6f 1abb c5d1 f8bb
000003d0: 7fe6 89bc fb7f cabc c42e 8d3b fc38 16bd
000003e0: c350 debc e0f5 9e3b d840 c33c f8a3 663c
000003f0: 9278 45bd 58ec 14bc c433 38bc 3c9c f63c
-0.009053559 -0.05148954 0.0053308667 -0.07199198 -0.036004204 -0.023970492 -0.015570943 -0.005065768
-0.09561896 -0.01327078 -0.037735973 -0.0840165 -0.039629925 0.0029394443 -0.051464982 -0.023304943
0.0057464377 -0.027636737 -0.057280008 -0.026094507 -0.085563056 -0.10319536 -0.04260308 -0.010988948
-0.040033594 -0.010250317 -0.009505208 -0.030124905 -0.052238937 -0.0044015395 0.09980835 0.087463155
0.0450832 0.08106172 0.07786374 -0.025555175 0.035189163 0.040573124 0.058005374 0.04495354
-0.043633915 0.024973521 -0.0051125158 0.01579029 -0.047376554 -0.010032029 -0.062262874 -0.09288756
-0.03803391 -0.01411734 -0.027932806 0.045606464 -0.07179429 -0.01379382 0.008635411 0.00019631794
-0.006737281 -0.066633664 -0.03332663 -0.035234123 0.04484579 -0.012667242 -0.023752118 -0.0325204
0.019035649 0.09427349 0.030472875 0.04824452 0.06338281 0.07657051 0.062859364 0.008468749
0.04616682 0.03912112 0.064636335 -0.030857919 -0.06314655 -0.10075036 -0.06712587 -0.09616262
-0.032745924 -0.10753453 -0.07869158 -0.046752956 -0.050781265 -0.0014936639 -0.08392656 -0.030562233
-0.043018367 0.005765675 -0.041468862 -0.04976171 0.04404502 0.042831212 0.03012503 -0.008924929
-0.027794914 0.09344672 0.025830993 -0.049344596 -0.03146896 -0.005688971 0.048245966 -0.0058450187
0.0078051304 0.015440643 -0.025676468 0.04057685 0.02757505 -0.04688449 -0.03962466 -0.017657176
0.052922435 0.038026195 0.04567398 -0.013026766 0.054855652 -0.028877776 0.0292886 -0.021706667
-0.0035600415 0.03020721 0.0058311587 0.04694125 0.0055440664 -0.0020260795 0.009168189 0.026629748
-0.064871505 -0.0052213864 -0.059033662 -0.011848072 0.09709073 0.048084628 -0.015540769 0.043579847
0.07860329 0.043737862 -0.008284364 -0.003316921 0.017494796 -0.041095033 -0.025118878 -0.03838163
0.01965372 -0.06779428 -0.09836069 -0.10161532 -0.014323912 -0.08639114 0.027112585 0.011195791
-0.033045795 -0.010162552 0.014828149 -0.0029158513 -0.03331285 -0.019887099 0.046816252 0.01468305
-0.0062859925 0.024328355 -0.019371608 -0.034980435 -0.037356853 -0.03723085 -0.004314562 -0.034456193
-0.01887369 -0.027983693 0.07828962 0.041472625 0.06904559 0.034887902 -0.018379426 0.022162305
0.015457527 0.006317245 -0.005211825 -0.029909076 0.04571612 0.040883243 0.009055164 0.04059741
0.020520426 0.050630514 0.030060364 0.051667053 0.0047016395 -0.024082184 0.019296123 -0.0044185584
-0.048955273 0.024753919 -0.003640731 -0.05830878 0.0017503317 -0.059667043 -0.05560299 0.0037105132
0.03289723 0.045484133 -0.024433935 0.021197699 0.01673413 -0.002555208 0.018483862 -0.06371134
0.023590973 0.0497757 -0.0194292 0.00014352032 -0.01763486 -0.028266937 -0.018929167 0.0020440046
0.045904584 -0.03704145 -0.032030445 0.05712485 -0.03208039 -0.057975397 0.025903119 -0.05496775
0.02994436 0.031653248 0.035985254 -0.024354836 -0.032564815 -0.0073385024 -0.028707385 -0.019058967
0.0045983684 -0.028553726 0.012458275 0.013301753 -0.07597197 0.0117127225 -0.0034425536 0.007031534
0.017500844 0.008936312 -0.0023565132 -0.007593366 -0.016833542 -0.024719229 0.0043085534 -0.03667544
-0.02713812 0.004851088 0.02383463 0.014077179 -0.048210688 -0.009089552 -0.011242811 0.030103795

fc1.bias f4 [120]
00000000: 6cc3 4f3d e520 0fbc 9949 c33d 9aec b83d
00000010: af2e ed3b f320 303e 4cf3 273d 1294 d13d
00000020: 4879 1ebc bbce f1bd 7842 bfbc 4b60 1dbd
00000030: 4404 3b3e 4f9f 6e3b 682e 173e 4bb9 513c
00000040: f479 cabc 32a4 b9bc 49ad 08bd 19c5 f93c
00000050: 7b31 c13d 562e 15bd 10b7 1cbc 21ed 2e3d
00000060: 2ee5 dd3d 07e1 a6bd b7bb 4c3c b346 b33b
00000070: b073 5d3d e5a9 813d 16fc b73d 11fd 3f3e
00000080: 63e2 e4bb adf4 96bd e98a b5bd de48 ee3d
00000090: 0b76 903d f500 b73d 1daa 89bd 6b78 3e3d
000000a0: ebda 04be 3052 a2bc 2ef7 c13a 8ae8 373d
000000b0: fec2 3d3d 1650 23bb 0b48 02bc 3af6 de39
000000c0: 033e e93d 9193 d13d 19e8 05be 5977 84bc
000000d0: f865 103d 4dbc 38bd 6884 d83d eceb 473e
000000e0: c412 da3d ccf9 a53a 9486 3c3d 33c8 a3bd
000000f0: fd55 37bd e190 19bd 5214 423d 8254 0c3d
00000100: 96cf fd3d 6d2f 3d3e ce40 453d e6a4 db3d
00000110: 3067 6cbc b3bf 43be f5b0 52bd 852a 03bd
00000120: bbf5 163c 143e a6bc dc55 0e3e d606 3a3d
00000130: ab16 a7bb 04e2 95bb b8ef b4bd 7204 d3bc
00000140: f5a0 91bd ba9c 5e3d c9d4 02bd 2436 1dbd
00000150: e831 fb3c 80a5 ec3c 794f f1bc 2396 043e
00000160: b59e 4cbb 2577 553d d63c 173e 811e 1abc
00000170: f95d 34bd d48f bd3d b0f2 ed3d e1fd 943d
00000180: 4545 ba3d 4985 7c3c 7ee8 87bc 0208 0e3e
00000190: c791 bcbc 2ef2 b73d d839 513d 7d06 4dbe
000001a0: bb4e e53d 8a52 8e3c 037d cbbd de6d c43b
000001b0: bc0d 0c3d f958 37bc 9e0d bb3d 21b0 15be
000001c0: 19d7 c93d 3677 01bc 544a 103d 7bc5 5f3d
000001d0: e6d5 29bc 801f c83d 0b74 c53d e264 7abc
0.05072348 -0.00873587 0.09535522 0.09029503 0.007238231 0.17200069 0.04100351 0.1023332
-0.00967247 -0.11807009 -0.023347124 -0.03842191 0.18263346 0.0036410873 0.14763796 0.012800525
-0.024716355 -0.022661302 -0.033368383 0.030489491 0.09433266 -0.036421143 -0.00956513 0.042706612
0.10834728 -0.08148389 0.012495927 0.0054710745 0.054065406 0.06331233 0.089836285 0.18748881
-0.006984995 -0.07370887 -0.08864386 0.11634992 0.07053765 0.089357294 -0.067219 0.04650156
-0.12974136 -0.01981458 0.0014798397 0.0448995 0.046328537 -0.002491956 -0.007951747 0.00042526593
0.11388781 0.10233224 -0.1307682 -0.01617019 0.035253495 -0.045101453 0.105721295 0.19523591
0.106481105 0.0012662946 0.04602678 -0.07997169 -0.04475974 -0.037491683 0.04738266 0.03426028
0.123931095 0.18475123 0.048157506 0.10724811 -0.014428899 -0.19116096 -0.05143829 -0.03202297
0.00921386 -0.020293273 0.1389994 0.045416676 -0.005099138 -0.0045740623 -0.08834785 -0.025758956
-0.07110778 0.054348685 -0.03194121 -0.03838171 0.030663446 0.02888751 -0.02945684 0.12947898
-0.0031222526 0.05211558 0.14769301 -0.009406687 -0.04403493 0.09255949 0.116185546 0.07274986
0.09095243 0.015412637 -0.016590353 0.13870242 -0.02301873 0.08981739 0.051080555 -0.20022006
0.11196657 0.017373342 -0.099359535 0.0059945425 0.034192786 -0.011190646 0.09133457 -0.14617969
0.0985548 -0.007901957 0.035227135 0.05463169 -0.010365939 0.09771633 0.09641274 -0.015282841

fc2.weight f4 [84, 120]
00000000: 09ac 3b3d 42c2 bbbb 8a0c 82bb 318d b0bd
00000010: f73f 93bd f4ac a73d c9fa 28bd e478 d83d
00000020: 99c3 8b3d 3967 9dbd 647f b23d 4ab7 743d
00000030: 6c39 d63c 54ac 92bc 3433 ea3d c4e6 82bd
00000040: ea83 443c 4904 02bd 926e aabd 00b9 c03d
00000050: 1f34 72bd e389 24bd 52e7 843d 25f0 87bd
00000060: 0ddb 0fbe 2052 dd3d b019 ccbd 1999 94bc
00000070: d792 093d 1697 013e 8b50 813d d964 f7bc
00000080: f290 693a 2c1f c4bd 716f debc 3800 5a3c
00000090: f35d 0e3e e590 81bb 75aa d93b 1a6f 77bd
000000a0: 8b50 a1bc 7898 23be 10f6 8cbd a100 a73d
000000b0: a310 95bd 7452 25bc cebc 8bbd 9bd4 173d
000000c0: a3cb a03d 9418 963d e80e be3d a7eb 13bd
000000d0: ad47 32bc a30e da3d ce67 5b3d 44e3 cf3c
000000e0: da69 bdbc 5103 4c3d 004b dfbc 8224 8bbd
000000f0: 39e5 7a3c 1ab1 efbd bfb5 9fbc 9110 d63d
00000100: d947 183e a30a 3fbd afcb a2bd b72e c63c
00000110: ea10 cebd 8aed 843d 0e4a 823c 02b4 973d
00000120: a6ca 013e 23bc 07be 22da d13c da6a 2d3d
00000130: 46e1 0b3e 1d49 dbbd 3c0c 44bd 5608 bd3d
00000140: 29d8 063d 5a44 e5bd 426d 8abd 19e0 b63d
00000150: 8b46 343d eeb5 41bb e2d7 933c f134 a4bd
00000160: 2906 9bbd 39a1 12be abca 22bc ddeb fd3c
00000170: e6d8 663d 08a4 0d3d 29a2 933a 6b0b 8fbd
00000180: 5eb8 0cbe b6b4 11bb aa12 fabc d8c2 073e
00000190: f108 08bd cd67 01be 7b9f c7bd e18f ba3c
000001a0: 555f 8abd 7c15 f83c ab00 3c3c e9f1 1b3d
000001b0: db8a 37bc 93bd 33be d1f3 06be 44f9 dcbd
000001c0: 310a 923d 97a3 12be 9318 49bd b651 ee3d
000001d0: e201 d03b a6d3 603d 3856 29be f714 1f3c
000001e0: b5d3 93bb cf65 3cbd e8d6 bfbd 4945 e43d
000001f0: 3f95 7abd 2d85 13bc 941b 9a3d 3b3f 673d
00000200: 4e0d 473d 0969 57bd 1308 66bd f298 14bd
00000210: f3f3 f2bb c4ac 65bb 9dfe bbbd 882d 0b3d
00000220: bbf5 aabd 1dfc d8bc f8bf 593d 917e cfbd
00000230: 4e61 9c3d 1ef1 153d 04a1 f43c d226 29bc
00000240: 6474 c4bd bd2b 77bb d697 d5bd 7e6c b2bb
00000250: 3e94 4f3c d992 943d 0a43 8c3d b065 883c
00000260: 735a 923c a408 b0bd 1f8d 9bbc bca8 c9bd
00000270: 70f5 8bbd 1ab7 9d3b 51b2 89bc 0698 95bd
00000280: 6006 f6bc e54e 313b 5461 c5bd c668 7dbc
00000290: 7027 35bd eae5 493d d53c a43d c09a b7bc
000002a0: abd0 203d bf1f 0c3d 5356 683d 7579 223d
000002b0: cab6 0dbd d51a d03d f344 febc 0fb8 5d3d
000002c0: cad5 403d 0f37 a43c ff35 a73d 8fe3 913d
000002d0: 8e59 2b3d 41de 7bbd eba7 10bd 3c9a 7ebd
000002e0: df0b aa3d 3c69 2a3d 92a6 a23d 29b2 d33b
000002f0: f682 7e3b 3ecc dbbd fa83 a13d af20 853d
00000300: 76f0 933d 2c92 39bd 0f8f 77bd a482 953d
00000310: 7bfa 70bd 524a 9bbc 46a9 c83d 3444 94bd
00000320: 2ed2 0abe 6ac3 cbbd f144 c23d 52e4 8cbd
00000330: ca95 42bb bfc9 46bd 8a4b 8f3d cf33 cc3d
00000340: 0bf3 05bd 856a 9dbd 6e5b 9f3d 4e75 683c
00000350: a231 c6bd f7da f33d db29 30bd f465 753d
00000360: 971d ca3c 9647 ce3d 5f77 bfbc b6d8 8dbd
00000370: 9af3 2fbd 17a3 9b3a 97de 933d e064 d2bd
00000380: c01f 003b b1af 643d 2c0a a73c 969c 2dbd
00000390: 571d 9ebc 4828 4bbd 9bb1 62bd 12a3 aabd
000003a0: f93d 0d3e 7bbc b1bd ee5c 813c a970 e83c
000003b0: 5aa9 1ebd 813f 9a3c a73f df3d cedf 823d
000003c0: 2c4a 87bd e73b 853d a927 cf3c a54b 65bd
000003d0: 52ea a63d 1640 873d 7b19 bb3c 3f7c 7cbd
000003e0: c679 d3bd 30de 9c3c f1cd 2e3c d620 73bd
000003f0: 935d 8abd 85f0 d5bc 76b5 193d f5eb 293d
0.045818362 -0.0057299444 -0.00396878 -0.0862068 -0.07189935 0.08187285 -0.041254792 0.10569933
0.06824417 -0.07685704 0.08715704 0.05974511 0.026150428 -0.017904438 0.114355475 -0.06391671
0.011994341 -0.031742368 -0.08321871 0.09410286 -0.059131738 -0.04017056 0.06489433 -0.06637601
-0.14048405 0.1080668 -0.09965837 -0.018139409 0.033587303 0.12655291 0.063141905 -0.030199455
0.0008909843 -0.09576258 -0.027152749 0.013305716 0.13903026 -0.0039540404 0.0066426345 -0.06040869
-0.019691726 -0.15976131 -0.0688287 0.08154417 -0.07278564 -0.010090459 -0.06823121 0.03706799
0.078513406 0.07328907 0.09280187 -0.036113407 -0.010881347 0.10647323 0.053565793 0.025376923
-0.023121763 0.04980785 -0.027257442 -0.06794073 0.01531344 -0.11703701 -0.019495843 0.104523785
0.14871158 -0.046641003 -0.07949006 0.024192197 -0.1006182 0.064906195 0.015904453 0.07407381
0.1267496 -0.13255362 0.02561671 0.04233823 0.13660154 -0.107073046 -0.04786323 0.092301056
0.03292099 -0.11194678 -0.067591205 0.08929462 0.044012588 -0.0029557901 0.018047277 -0.0801791
-0.07569534 -0.14319314 -0.009936015 0.030996257 0.056359194 0.03458026 0.0011263537 -0.069846
-0.13742206 -0.0022232956 -0.030526478 0.1325792 -0.033211652 -0.12637253 -0.09747215 0.022773685
-0.067564644 0.030283682 0.011474769 0.0380725 -0.011202539 -0.17552786 -0.13178946 -0.10789731
0.0713085 -0.14320217 -0.0490957 0.11636679 0.0063478807 0.054889344 -0.16536796 0.009709588
-0.0045113214 -0.04599553 -0.09367162 0.111460276 -0.06117749 -0.00900392 0.07524791 0.056456786
0.048596673 -0.052590404 -0.056160044 -0.036278673 -0.007414335 -0.0035045603 -0.09179423 0.03397897
-0.083476506 -0.026487404 0.05316159 -0.101315625 0.07635747 0.0366069 0.029861934 -0.010324197
-0.09592512 -0.003771528 -0.10429351 -0.005445062 0.012669621 0.072545715 0.06848724 0.01665005
0.017865395 -0.08595398 -0.01898819 -0.09846637 -0.06833923 0.004813087 -0.01680866 -0.07304387
-0.030032337 0.0027055081 -0.096377045 -0.015466874 -0.044227064 0.04929153 0.08019415 -0.022412658
0.0392615 0.034209963 0.05672295 0.03966661 -0.03459815 0.10161368 -0.031038737 0.05413061
0.047078885 0.020045785 0.08164596 0.071234815 0.041833453 -0.061491255 -0.03531639 -0.062158808
0.083030455 0.041604266 0.07941927 0.0064604473 0.0038835383 -0.107323155 0.07886501 0.065003745
0.07223599 -0.045305416 -0.060439166 0.07300308 -0.058832627 -0.018956337 0.09797911 -0.07239571
-0.1355674 -0.09949382 0.09485806 -0.06879486 -0.0029691332 -0.048532244 0.0699683 0.09970819
-0.032702487 -0.076863326 0.07781111 0.014188124 -0.096774355 0.119069986 -0.043008666 0.059911683
0.024672313 0.10072248 -0.02337235 -0.069261 -0.042956926 0.0011874166 0.0722019 -0.10273147
0.0019550174 0.055831615 0.020390593 -0.04238566 -0.0193011 -0.049598962 -0.05534516 -0.083318844
0.13793172 -0.08678528 0.015791383 0.028374033 -0.038735725 0.01882911 0.109008126 0.063903436
-0.06605944 0.06505566 0.025287466 -0.055980343 0.08150162 0.0660402 0.022839298 -0.061641928
-0.10325961 0.019148916 0.010669217 -0.059357487 -0.06756129 -0.026115665 0.03752657 0.04148479

fc2.bias f4 [84]
00000000: 6ce6 a63d 89f1 e13c 8964 043e ba35 6d3b
00000010: a2b4 31bd c255 b3bd 51d2 263e 15bc ad3d
00000020: 5d1c 4e3e 9f46 5e3e e7c7 3dbc abde 24bc
00000030: 86a9 c83e 975c 26be d96d 9abd 9928 8c3e
00000040: cdbe 29be 5202 1a3e 1ac8 643e d3ff 103e
00000050: a1d0 bc3d ad9a 013e 7a61 433e 6978 9bbd
00000060: a2da d9bd 8ce4 ea3d a821 983e 5704 353d
00000070: dafb 37bc 7ce8 8ebd 7abb 49bd 39fd 9c3e
00000080: 5073 98bd 4bb6 9a3d 0878 a13d 4a65 1f3e
00000090: 3c8c 443d dfb4 9e3d 7f3b 14be 494d 3bbe
000000a0: 9616 66bd b012 8b3d e8c2 f13d d0d0 ad3c
000000b0: 2a60 64bc 0948 bfbd 56b2 6b3b 16d1 6bbd
000000c0: b4dc 02bd 797b fb3c a8c7 2f3d 84ac 173d
000000d0: 3323 a73d 8dc3 d53d 179c 8ebc 0d07 963d
000000e0: dcc9 213e f05b 52bd 51a8 d0bd 1b41 073e
000000f0: 9673 5e3e 20e5 dbbc c5af bbbc 4921 363e
00000100: 844e 323d 5902 b33e 9b4e dc3b b97b 96bd
00000110: 63ff 0c3e dd28 99bc b25e 1f3e 06c6 d73d
00000120: 2797 06bc 56c7 433d 58de 3dbc 1788 ee3d
00000130: 6858 433c f988 00bd 865a b83d db9f e03d
00000140: 162b 2a3c 3073 2e3e a588 2f3d 05fc 603e
0.08149418 0.027580993 0.12928976 0.0036195354 -0.043385155 -0.087565914 0.16291167 0.084831394
0.20128007 0.21706627 -0.011583305 -0.010062854 0.39191836 -0.16246258 -0.07540483 0.27374724
-0.16576691 0.15039948 0.22341958 0.14160089 0.0921948 0.1265666 0.19080153 -0.07591326
-0.10637404 0.11469373 0.29713178 0.044193592 -0.01122948 -0.069779366 -0.049251057 0.30661944
-0.07443869 0.07554301 0.07884222 0.15565982 0.0479853 0.07749342 -0.14475821 -0.182912
-0.056173883 0.06790674 0.118047535 0.021217734 -0.013938943 -0.093399115 0.003596445 -0.057572447
-0.03194876 0.030698525 0.042915016 0.037029758 0.081610106 0.10437689 -0.017408414 0.073255636
0.1579966 -0.05135721 -0.10188354 0.1320843 0.2172378 -0.026842654 -0.022910962 0.17786135
0.04353191 0.3496273 0.0067232377 -0.07347817 0.13769297 -0.018696243 0.15563467 0.10535817
-0.008214748 0.047797523 -0.011588655 0.11647051 0.011922933 -0.031380627 0.09001641 0.1096799
0.010386249 0.17036128 0.042854924 0.21971138

fc3.weight f4 [10, 84]
00000000: c316 403e f78c 203e 6943 2bbe 6055 10bd
00000010: 8065 093e be7d 8f3c 3333 49bd 9103 933d
00000020: 2e99 6d3e fdd6 c73d e9b1 e23d 1803 1e3d
00000030: 0cd0 88be 87d3 b3bd 95d5 81bd 2b23 613e
00000040: 9341 0a3e 06c2 213e 5ebf 333e be11 0c3e
00000050: 4ef6 38be 42cc a0bd 963f 95be 7e69 81bd
00000060: dcdc bf3c aeaf 063e b49d 35be da30 4c3e
00000070: f714 a7bd 4636 203d b370 61bd 41e8 7a3e
00000080: 847c a2bc 232a adbc 4349 093e 0be5 22bd
00000090: 0e46 413e 6961 4c3e dd53 7f3d 0ea5 80bd
000000a0: dca9 c2bd e5ec 453d e9fb 073d 8ca5 653e
000000b0: cdfb 22bc 495d b4bc db3e 2b3e 937f ad3d
000000c0: 3a85 e43d 3dce f83b 6024 95bd a0b3 163e
000000d0: 9cf8 1dbe 81f3 cc3d 757b 2a3e f8ea 463d
000000e0: f3e4 dc3d b3f9 a0bd 8ddf 0aba 786d c53d
000000f0: e9b8 d1bc 0b6a e8bc f6a3 7ebd 4758 e43d
00000100: d711 363b c938 7ebe 965c aabd 5b80 833d
00000110: 3184 5b3c f802 033d 4946 f23d f6d3 273e
00000120: 3ade 8f3e 9d44 05be b76d 1f3b 8d77 cbbd
00000130: 518b 423d f249 b1bd 854d 5ebe 8e55 8ebd
00000140: 5bb8 09bd 7a9f 2bbe ee13 d33d f1af a73d
00000150: 1cd1 8fbd c53d 9abb 155d 0d3e 2cab f33c
00000160: 261d cbbc 5149 97bc f298 c9bd 5389 073e
00000170: bd9f 36be 81c1 843d 5068 473e c40d ed3d
00000180: 3dde 9ebe 90a6 9d3d a0c4 a4bd e2d3 d4bc
00000190: 6f71 803e bfab 3a3d 29e4 263e 0fab 343d
000001a0: 0884 1abd 61aa 5cbd 0d8a 10be 638b 6e3e
000001b0: dcaa 24bd f506 e7bd bc4b ecbd 0ff5 28be
000001c0: 8ec4 b53e 6b8c 8dbd dd30 4e3c 983a 32be
000001d0: a614 593d 24cb e13d aab3 523e 839e 8fbe
000001e0: d8d2 8bbd 385c b8bc 4c12 593e 7655 4d3d
000001f0: 451a cfbb d60b b83c 8d41 f13d 0e93 0d3e
00000200: 3071 183d b17e 9e3d 31d9 f43c dab8 babd
00000210: b279 ecbb 47e0 e33d aca3 ff3d d5c5 39be
00000220: ac22 dc3c 40dc 9bbe 963f 603d a1e4 3bba
00000230: 35e8 b63e fd8f b53d 1830 07bd 0fb4 f63d
00000240: f6de 30be 5dcc 263e 401e 97bc 28d7 223d
00000250: a6f5 8bbd 33ce 75be 4002 8c3d 54ee 9ebd
00000260: 3100 683d 9cfb 3bbe 8793 323d 8b31 c93d
00000270: d5fd 8bbd 517e 893c db48 163e 70dc 69be
00000280: 11ea 153c ab61 cdbd 886c 95be 2eeb 11be
00000290: 01fb 963d c922 1d3e bf9a f93d beb7 81be
000002a0: bf1d 833d 9d9a 4f3e 31b5 2bbe 8036 713e
000002b0: a9cd ca3c 59d7 adbc 5402 3e3d 3766 25bd
000002c0: 7d6c af3d 64e5 a4bd 03b5 41be b5bc 09be
000002d0: df5b 693e a7dc 65bd 8926 fc3c 4e0e e53d
000002e0: f9aa 76bd ddbd 57bb 17ef 5dbe 1120 37bd
000002f0: 1ce8 463e dd3e efbd a010 133d e8c6 d7bd
00000300: c9fb 35bd 376b 033e 305b 13bc 1d5b 9b3e
00000310: 16c7 09be 5d51 9c3d 006c 283b 99ff 553e
00000320: 2008 603d 0888 a0bb 6a05 b73c a52d ab3e
00000330: e206 07be 35cb c6bd 43db 9d3d a09f c1bd
00000340: 3b7b 203d bcd1 523e 2230 8bbd 0144 05be
00000350: bc86 f13d 6fe4 cabd cfcb 0b3e 5a7a f23d
00000360: 9d68 df3c 0f1c a5bd ac0c 8dbd 0eb3 9a3e
00000370: e804 083e 7776 d33d 3ed3 2dbd 509f 2d3d
00000380: b9ea 12be 99ff c53d 92f9 ffbd 614c 223d
00000390: 640b 9ebd 0647 693d 74f1 043e 77af 92bd
000003a0: a8dc b4bc 2a47 55bc c11d eabd c06d 9e3d
000003b0: 0faa fbbd 42ea 95bd 1354 6ebd 01b2 1e3e
000003c0: 8eca eabd ea4a 063d 51b3 8c3c 8c19 703d
000003d0: 4894 8bbc 98f3 8a3c f1b0 4d3d 0b14 253e
000003e0: 7f7e fd3d 863a dabc fd3b fabd 96bd 383e
000003f0: b78f 40be 5694 ed3c 452e a03e bc27 033d
0.18758683 0.15678774 -0.16724934 -0.03523767 0.13417625 0.017516013 -0.049121093 0.071784146
0.23202965 0.09757803 0.1106909 0.03857717 -0.26721227 -0.0878058 -0.06339566 0.21986072
0.13501577 0.1579667 0.1755347 0.13678643 -0.18062708 -0.07851459 -0.29150075 -0.06318949
0.023420744 0.13152954 -0.1773594 0.1994051 -0.081582956 0.03911426 -0.05503912 0.2450266
-0.019834764 -0.021138256 0.13406853 -0.039769214 0.1887438 0.19959034 0.062335838 -0.06281482
-0.09505054 0.048321623 0.033199225 0.22426432 -0.009947729 -0.022017138 0.16723196 0.084715985
0.111582235 0.007592945 -0.072823286 0.14716959 -0.15426868 0.10007382 0.16648658 0.048563927
0.10785856 -0.07860126 -0.0005297594 0.0964002 -0.025600867 -0.028370878 -0.062168084 0.1114965
0.002778163 -0.2482635 -0.083184406 0.06420966 0.013398216 0.031985253 0.11829812 0.1638945
0.28099233 -0.13014455 0.002432687 -0.09934912 0.047496144 -0.08656682 -0.21709259 -0.06949912
-0.03362308 -0.16760054 0.10306536 0.08187855 -0.07022306 -0.0047070705 0.13805039 0.029744707
-0.024794172 -0.018467577 -0.09843625 0.13235979 -0.17834373 0.064822204 0.19473386 0.11574891
-0.3102893 0.07697785 -0.08045316 -0.02597994 0.25086543 0.045573946 0.16297974 0.044108447
-0.03772357 -0.053873423 -0.14115162 0.2329536 -0.040202007 -0.11280624 -0.11537883 -0.16499732
0.35501522 -0.06911548 0.012584892 -0.17405164 0.052998208 0.11025074 0.20576349 -0.28050622
-0.06827325 -0.02250491 0.21198386 0.05013033 -0.0063202702 0.022466581 0.11780081 0.13825628
0.03721732 0.07739008 0.029888721 -0.09117289 -0.0072166556 0.11126762 0.1248239 -0.18141873
0.026872002 -0.30441475 0.05474814 -0.0007167552 0.35724035 0.08865354 -0.03300485 0.12046062
-0.17272553 0.16288896 -0.018447042 0.03975597 -0.06833963 -0.2400444 0.06836367 -0.07760301
0.056640808 -0.183577 0.043597724 0.09823903 -0.06835524 0.016783865 0.1467623 -0.22837996
0.009150044 -0.10028394 -0.29184365 -0.1424987 0.07372094 0.153453 0.121877186 -0.25335497
0.06402158 0.20273824 -0.16768338 0.23555946 0.02475627 -0.02122085 0.04638894 -0.040380683
0.08565614 -0.08051565 -0.18916707 -0.13450892 0.22788952 -0.056118634 0.030780094 0.11184369
-0.060221646 -0.0032919564 -0.21673237 -0.044708315 0.1942448 -0.11681912 0.035904527 -0.10535985
-0.044429574 0.12833868 -0.008993909 0.3034295 -0.13454852 0.07632706 0.0025699139 0.20898284
0.05469525 -0.0048990287 0.022341449 0.33433262 -0.1318622 -0.097067274 0.077078365 -0.09454274
0.03918002 0.2058782 -0.0679629 -0.13014223 0.11793277 -0.099068515 0.13651966 0.11839743
0.027271563 -0.080619924 -0.068871826 0.30214733 0.13283122 0.1032533 -0.042437784 0.04238826
-0.14347352 0.09667892 -0.12498774 0.03962362 -0.07717016 0.0569525 0.12982732 -0.071623735
-0.022077873 -0.013017455 -0.11431456 0.07735777 -0.122882955 -0.07320072 -0.05818565 0.1549759
-0.114644155 0.032786287 0.017175348 0.058618113 -0.01703848 0.016961858 0.050217573 0.16120927
0.12377643 -0.026639234 -0.12218473 0.18041071 -0.18804823 0.029001396 0.312853 0.032020316

fc3.bias f4 [10]
00000000: 0695 25be 8100 fabe 5189 8c3d a695 703e
00000010: 1b81 153f e1be 2dbe 4f20 3e3e 9097 68be
00000020: 7388 b93e ba59 99be
-0.16170129 -0.4882851 0.068621285 0.23494586 0.58400124 -0.16967346 0.18567012 -0.22714067
0.36236915 -0.29951268
